{"config": [{"config": {"input_dtype": "float32", "function": ["\u00e3\u0001\u0000\u0000\u0000\u0000\u0000\u0000\u0000\u0001\u0000\u0000\u0000\u0002\u0000\u0000\u0000S\u0000\u0000\u0000s\f\u0000\u0000\u0000|\u0000\u0000d\u0001\u0000\u001bd\u0002\u0000\u0018S)\u0003N\u00e9\u00ff\u0000\u0000\u0000\u00e7\u0000\u0000\u0000\u0000\u0000\u0000\u00e0?\u00a9\u0000)\u0001\u00da\u0001xr\u0003\u0000\u0000\u0000r\u0003\u0000\u0000\u0000\u00fa//home/wj/CarND-Term1-Project/Project_3/model.py\u00da\b<lambda>\u0014\u0000\u0000\u0000s\u0000\u0000\u0000\u0000", null, null], "batch_input_shape": [null, 64, 64, 3], "output_shape_type": "raw", "trainable": true, "arguments": {}, "name": "lambda_1", "function_type": "lambda", "output_shape": [64, 64, 3]}, "class_name": "Lambda"}, {"config": {"init": "glorot_uniform", "nb_row": 1, "nb_col": 1, "activity_regularizer": null, "nb_filter": 3, "border_mode": "same", "bias": true, "name": "color_conv", "W_regularizer": null, "b_regularizer": null, "subsample": [1, 1], "dim_ordering": "tf", "W_constraint": null, "b_constraint": null, "activation": "linear", "trainable": true}, "class_name": "Convolution2D"}, {"config": {"init": "glorot_uniform", "nb_row": 3, "nb_col": 3, "activity_regularizer": null, "nb_filter": 64, "border_mode": "same", "bias": true, "name": "block1_conv1", "W_regularizer": null, "b_regularizer": null, "subsample": [1, 1], "dim_ordering": "tf", "W_constraint": null, "b_constraint": null, "activation": "elu", "trainable": true}, "class_name": "Convolution2D"}, {"config": {"init": "glorot_uniform", "nb_row": 3, "nb_col": 3, "activity_regularizer": null, "nb_filter": 64, "border_mode": "same", "bias": true, "name": "block1_conv2", "W_regularizer": null, "b_regularizer": null, "subsample": [1, 1], "dim_ordering": "tf", "W_constraint": null, "b_constraint": null, "activation": "elu", "trainable": true}, "class_name": "Convolution2D"}, {"config": {"name": "block1_pool", "pool_size": [2, 2], "dim_ordering": "tf", "trainable": true, "border_mode": "valid", "strides": [2, 2]}, "class_name": "MaxPooling2D"}, {"config": {"init": "glorot_uniform", "nb_row": 3, "nb_col": 3, "activity_regularizer": null, "nb_filter": 128, "border_mode": "same", "bias": true, "name": "block2_conv1", "W_regularizer": null, "b_regularizer": null, "subsample": [1, 1], "dim_ordering": "tf", "W_constraint": null, "b_constraint": null, "activation": "elu", "trainable": true}, "class_name": "Convolution2D"}, {"config": {"init": "glorot_uniform", "nb_row": 3, "nb_col": 3, "activity_regularizer": null, "nb_filter": 128, "border_mode": "same", "bias": true, "name": "block2_conv2", "W_regularizer": null, "b_regularizer": null, "subsample": [1, 1], "dim_ordering": "tf", "W_constraint": null, "b_constraint": null, "activation": "elu", "trainable": true}, "class_name": "Convolution2D"}, {"config": {"name": "block2_pool", "pool_size": [2, 2], "dim_ordering": "tf", "trainable": true, "border_mode": "valid", "strides": [2, 2]}, "class_name": "MaxPooling2D"}, {"config": {"init": "glorot_uniform", "nb_row": 3, "nb_col": 3, "activity_regularizer": null, "nb_filter": 256, "border_mode": "same", "bias": true, "name": "block3_conv1", "W_regularizer": null, "b_regularizer": null, "subsample": [1, 1], "dim_ordering": "tf", "W_constraint": null, "b_constraint": null, "activation": "elu", "trainable": true}, "class_name": "Convolution2D"}, {"config": {"init": "glorot_uniform", "nb_row": 3, "nb_col": 3, "activity_regularizer": null, "nb_filter": 256, "border_mode": "same", "bias": true, "name": "block3_conv2", "W_regularizer": null, "b_regularizer": null, "subsample": [1, 1], "dim_ordering": "tf", "W_constraint": null, "b_constraint": null, "activation": "elu", "trainable": true}, "class_name": "Convolution2D"}, {"config": {"init": "glorot_uniform", "nb_row": 3, "nb_col": 3, "activity_regularizer": null, "nb_filter": 256, "border_mode": "same", "bias": true, "name": "block3_conv3", "W_regularizer": null, "b_regularizer": null, "subsample": [1, 1], "dim_ordering": "tf", "W_constraint": null, "b_constraint": null, "activation": "elu", "trainable": true}, "class_name": "Convolution2D"}, {"config": {"name": "block3_pool", "pool_size": [2, 2], "dim_ordering": "tf", "trainable": true, "border_mode": "valid", "strides": [2, 2]}, "class_name": "MaxPooling2D"}, {"config": {"init": "glorot_uniform", "nb_row": 3, "nb_col": 3, "activity_regularizer": null, "nb_filter": 512, "border_mode": "same", "bias": true, "name": "block4_conv1", "W_regularizer": null, "b_regularizer": null, "subsample": [1, 1], "dim_ordering": "tf", "W_constraint": null, "b_constraint": null, "activation": "elu", "trainable": true}, "class_name": "Convolution2D"}, {"config": {"init": "glorot_uniform", "nb_row": 3, "nb_col": 3, "activity_regularizer": null, "nb_filter": 512, "border_mode": "same", "bias": true, "name": "block4_conv2", "W_regularizer": null, "b_regularizer": null, "subsample": [1, 1], "dim_ordering": "tf", "W_constraint": null, "b_constraint": null, "activation": "elu", "trainable": true}, "class_name": "Convolution2D"}, {"config": {"init": "glorot_uniform", "nb_row": 3, "nb_col": 3, "activity_regularizer": null, "nb_filter": 512, "border_mode": "same", "bias": true, "name": "block4_conv3", "W_regularizer": null, "b_regularizer": null, "subsample": [1, 1], "dim_ordering": "tf", "W_constraint": null, "b_constraint": null, "activation": "elu", "trainable": true}, "class_name": "Convolution2D"}, {"config": {"name": "block4_pool", "pool_size": [2, 2], "dim_ordering": "tf", "trainable": true, "border_mode": "valid", "strides": [2, 2]}, "class_name": "MaxPooling2D"}, {"config": {"init": "glorot_uniform", "nb_row": 3, "nb_col": 3, "activity_regularizer": null, "nb_filter": 512, "border_mode": "same", "bias": true, "name": "block5_conv1", "W_regularizer": null, "b_regularizer": null, "subsample": [1, 1], "dim_ordering": "tf", "W_constraint": null, "b_constraint": null, "activation": "elu", "trainable": true}, "class_name": "Convolution2D"}, {"config": {"init": "glorot_uniform", "nb_row": 3, "nb_col": 3, "activity_regularizer": null, "nb_filter": 512, "border_mode": "same", "bias": true, "name": "block5_conv2", "W_regularizer": null, "b_regularizer": null, "subsample": [1, 1], "dim_ordering": "tf", "W_constraint": null, "b_constraint": null, "activation": "elu", "trainable": true}, "class_name": "Convolution2D"}, {"config": {"init": "glorot_uniform", "nb_row": 3, "nb_col": 3, "activity_regularizer": null, "nb_filter": 512, "border_mode": "same", "bias": true, "name": "block5_conv3", "W_regularizer": null, "b_regularizer": null, "subsample": [1, 1], "dim_ordering": "tf", "W_constraint": null, "b_constraint": null, "activation": "elu", "trainable": true}, "class_name": "Convolution2D"}, {"config": {"name": "block5_pool", "pool_size": [2, 2], "dim_ordering": "tf", "trainable": true, "border_mode": "valid", "strides": [2, 2]}, "class_name": "MaxPooling2D"}, {"config": {"trainable": true, "name": "Flatten"}, "class_name": "Flatten"}, {"config": {"init": "glorot_uniform", "W_constraint": null, "activity_regularizer": null, "input_dim": 2048, "output_dim": 512, "name": "fc1", "W_regularizer": null, "b_regularizer": null, "activation": "elu", "b_constraint": null, "trainable": true, "bias": true}, "class_name": "Dense"}, {"config": {"trainable": true, "name": "fc1_dropout", "p": 0.5}, "class_name": "Dropout"}, {"config": {"init": "glorot_uniform", "W_constraint": null, "activity_regularizer": null, "input_dim": 512, "output_dim": 256, "name": "fc2", "W_regularizer": null, "b_regularizer": null, "activation": "elu", "b_constraint": null, "trainable": true, "bias": true}, "class_name": "Dense"}, {"config": {"trainable": true, "name": "fc2_dropout", "p": 0.5}, "class_name": "Dropout"}, {"config": {"init": "glorot_uniform", "W_constraint": null, "activity_regularizer": null, "input_dim": 256, "output_dim": 64, "name": "fc3", "W_regularizer": null, "b_regularizer": null, "activation": "elu", "b_constraint": null, "trainable": true, "bias": true}, "class_name": "Dense"}, {"config": {"trainable": true, "name": "fc3_dropout", "p": 0.5}, "class_name": "Dropout"}, {"config": {"init": "glorot_uniform", "W_constraint": null, "activity_regularizer": null, "input_dim": 64, "output_dim": 32, "name": "fc4", "W_regularizer": null, "b_regularizer": null, "activation": "elu", "b_constraint": null, "trainable": true, "bias": true}, "class_name": "Dense"}, {"config": {"trainable": true, "name": "fc4_dropout", "p": 0.5}, "class_name": "Dropout"}, {"config": {"init": "zero", "W_constraint": null, "activity_regularizer": null, "input_dim": 32, "output_dim": 1, "name": "output", "W_regularizer": null, "b_regularizer": null, "activation": "linear", "b_constraint": null, "trainable": true, "bias": true}, "class_name": "Dense"}], "keras_version": "1.2.1", "class_name": "Sequential"}