{"keras_version": "1.2.1", "config": [{"config": {"trainable": true, "output_shape": [64, 64, 3], "function_type": "lambda", "arguments": {}, "batch_input_shape": [null, 64, 64, 3], "input_dtype": "float32", "output_shape_type": "raw", "function": ["\u00e3\u0001\u0000\u0000\u0000\u0000\u0000\u0000\u0000\u0001\u0000\u0000\u0000\u0002\u0000\u0000\u0000S\u0000\u0000\u0000s\f\u0000\u0000\u0000|\u0000\u0000d\u0001\u0000\u001bd\u0002\u0000\u0018S)\u0003N\u00e9\u00ff\u0000\u0000\u0000\u00e7\u0000\u0000\u0000\u0000\u0000\u0000\u00e0?\u00a9\u0000)\u0001\u00da\u0001xr\u0003\u0000\u0000\u0000r\u0003\u0000\u0000\u0000\u00fa//home/wj/CarND-Term1-Project/Project_3/model.py\u00da\b<lambda>\u0014\u0000\u0000\u0000s\u0000\u0000\u0000\u0000", null, null], "name": "lambda_1"}, "class_name": "Lambda"}, {"config": {"activity_regularizer": null, "b_regularizer": null, "bias": true, "border_mode": "same", "nb_row": 1, "dim_ordering": "tf", "trainable": true, "subsample": [1, 1], "W_regularizer": null, "activation": "linear", "nb_col": 1, "b_constraint": null, "init": "glorot_uniform", "nb_filter": 3, "W_constraint": null, "name": "color_conv"}, "class_name": "Convolution2D"}, {"config": {"epsilon": 0.001, "beta_regularizer": null, "momentum": 0.99, "gamma_regularizer": null, "axis": -1, "mode": 0, "trainable": true, "name": "batchnormalization_1"}, "class_name": "BatchNormalization"}, {"config": {"activity_regularizer": null, "b_regularizer": null, "bias": true, "border_mode": "same", "nb_row": 3, "dim_ordering": "tf", "trainable": true, "subsample": [1, 1], "W_regularizer": null, "activation": "elu", "nb_col": 3, "b_constraint": null, "init": "glorot_uniform", "nb_filter": 64, "W_constraint": null, "name": "block1_conv1"}, "class_name": "Convolution2D"}, {"config": {"epsilon": 0.001, "beta_regularizer": null, "momentum": 0.99, "gamma_regularizer": null, "axis": -1, "mode": 0, "trainable": true, "name": "batchnormalization_2"}, "class_name": "BatchNormalization"}, {"config": {"pool_size": [2, 2], "strides": [2, 2], "border_mode": "valid", "dim_ordering": "tf", "trainable": true, "name": "block1_pool"}, "class_name": "MaxPooling2D"}, {"config": {"activity_regularizer": null, "b_regularizer": null, "bias": true, "border_mode": "same", "nb_row": 3, "dim_ordering": "tf", "trainable": true, "subsample": [1, 1], "W_regularizer": null, "activation": "elu", "nb_col": 3, "b_constraint": null, "init": "glorot_uniform", "nb_filter": 128, "W_constraint": null, "name": "block2_conv1"}, "class_name": "Convolution2D"}, {"config": {"epsilon": 0.001, "beta_regularizer": null, "momentum": 0.99, "gamma_regularizer": null, "axis": -1, "mode": 0, "trainable": true, "name": "batchnormalization_3"}, "class_name": "BatchNormalization"}, {"config": {"activity_regularizer": null, "b_regularizer": null, "bias": true, "border_mode": "same", "nb_row": 3, "dim_ordering": "tf", "trainable": true, "subsample": [1, 1], "W_regularizer": null, "activation": "elu", "nb_col": 3, "b_constraint": null, "init": "glorot_uniform", "nb_filter": 128, "W_constraint": null, "name": "block2_conv2"}, "class_name": "Convolution2D"}, {"config": {"epsilon": 0.001, "beta_regularizer": null, "momentum": 0.99, "gamma_regularizer": null, "axis": -1, "mode": 0, "trainable": true, "name": "batchnormalization_4"}, "class_name": "BatchNormalization"}, {"config": {"pool_size": [2, 2], "strides": [2, 2], "border_mode": "valid", "dim_ordering": "tf", "trainable": true, "name": "block2_pool"}, "class_name": "MaxPooling2D"}, {"config": {"activity_regularizer": null, "b_regularizer": null, "bias": true, "border_mode": "same", "nb_row": 3, "dim_ordering": "tf", "trainable": true, "subsample": [1, 1], "W_regularizer": null, "activation": "elu", "nb_col": 3, "b_constraint": null, "init": "glorot_uniform", "nb_filter": 256, "W_constraint": null, "name": "block3_conv1"}, "class_name": "Convolution2D"}, {"config": {"epsilon": 0.001, "beta_regularizer": null, "momentum": 0.99, "gamma_regularizer": null, "axis": -1, "mode": 0, "trainable": true, "name": "batchnormalization_5"}, "class_name": "BatchNormalization"}, {"config": {"activity_regularizer": null, "b_regularizer": null, "bias": true, "border_mode": "same", "nb_row": 3, "dim_ordering": "tf", "trainable": true, "subsample": [1, 1], "W_regularizer": null, "activation": "elu", "nb_col": 3, "b_constraint": null, "init": "glorot_uniform", "nb_filter": 256, "W_constraint": null, "name": "block3_conv2"}, "class_name": "Convolution2D"}, {"config": {"epsilon": 0.001, "beta_regularizer": null, "momentum": 0.99, "gamma_regularizer": null, "axis": -1, "mode": 0, "trainable": true, "name": "batchnormalization_6"}, "class_name": "BatchNormalization"}, {"config": {"activity_regularizer": null, "b_regularizer": null, "bias": true, "border_mode": "same", "nb_row": 3, "dim_ordering": "tf", "trainable": true, "subsample": [1, 1], "W_regularizer": null, "activation": "elu", "nb_col": 3, "b_constraint": null, "init": "glorot_uniform", "nb_filter": 256, "W_constraint": null, "name": "block3_conv3"}, "class_name": "Convolution2D"}, {"config": {"epsilon": 0.001, "beta_regularizer": null, "momentum": 0.99, "gamma_regularizer": null, "axis": -1, "mode": 0, "trainable": true, "name": "batchnormalization_7"}, "class_name": "BatchNormalization"}, {"config": {"pool_size": [2, 2], "strides": [2, 2], "border_mode": "valid", "dim_ordering": "tf", "trainable": true, "name": "block3_pool"}, "class_name": "MaxPooling2D"}, {"config": {"activity_regularizer": null, "b_regularizer": null, "bias": true, "border_mode": "same", "nb_row": 3, "dim_ordering": "tf", "trainable": true, "subsample": [1, 1], "W_regularizer": null, "activation": "elu", "nb_col": 3, "b_constraint": null, "init": "glorot_uniform", "nb_filter": 512, "W_constraint": null, "name": "block4_conv1"}, "class_name": "Convolution2D"}, {"config": {"epsilon": 0.001, "beta_regularizer": null, "momentum": 0.99, "gamma_regularizer": null, "axis": -1, "mode": 0, "trainable": true, "name": "batchnormalization_8"}, "class_name": "BatchNormalization"}, {"config": {"activity_regularizer": null, "b_regularizer": null, "bias": true, "border_mode": "same", "nb_row": 3, "dim_ordering": "tf", "trainable": true, "subsample": [1, 1], "W_regularizer": null, "activation": "elu", "nb_col": 3, "b_constraint": null, "init": "glorot_uniform", "nb_filter": 512, "W_constraint": null, "name": "block4_conv2"}, "class_name": "Convolution2D"}, {"config": {"epsilon": 0.001, "beta_regularizer": null, "momentum": 0.99, "gamma_regularizer": null, "axis": -1, "mode": 0, "trainable": true, "name": "batchnormalization_9"}, "class_name": "BatchNormalization"}, {"config": {"activity_regularizer": null, "b_regularizer": null, "bias": true, "border_mode": "same", "nb_row": 3, "dim_ordering": "tf", "trainable": true, "subsample": [1, 1], "W_regularizer": null, "activation": "elu", "nb_col": 3, "b_constraint": null, "init": "glorot_uniform", "nb_filter": 512, "W_constraint": null, "name": "block4_conv3"}, "class_name": "Convolution2D"}, {"config": {"epsilon": 0.001, "beta_regularizer": null, "momentum": 0.99, "gamma_regularizer": null, "axis": -1, "mode": 0, "trainable": true, "name": "batchnormalization_10"}, "class_name": "BatchNormalization"}, {"config": {"pool_size": [2, 2], "strides": [2, 2], "border_mode": "valid", "dim_ordering": "tf", "trainable": true, "name": "block4_pool"}, "class_name": "MaxPooling2D"}, {"config": {"activity_regularizer": null, "b_regularizer": null, "bias": true, "border_mode": "same", "nb_row": 3, "dim_ordering": "tf", "trainable": true, "subsample": [1, 1], "W_regularizer": null, "activation": "elu", "nb_col": 3, "b_constraint": null, "init": "glorot_uniform", "nb_filter": 512, "W_constraint": null, "name": "block5_conv1"}, "class_name": "Convolution2D"}, {"config": {"epsilon": 0.001, "beta_regularizer": null, "momentum": 0.99, "gamma_regularizer": null, "axis": -1, "mode": 0, "trainable": true, "name": "batchnormalization_11"}, "class_name": "BatchNormalization"}, {"config": {"activity_regularizer": null, "b_regularizer": null, "bias": true, "border_mode": "same", "nb_row": 3, "dim_ordering": "tf", "trainable": true, "subsample": [1, 1], "W_regularizer": null, "activation": "elu", "nb_col": 3, "b_constraint": null, "init": "glorot_uniform", "nb_filter": 512, "W_constraint": null, "name": "block5_conv2"}, "class_name": "Convolution2D"}, {"config": {"epsilon": 0.001, "beta_regularizer": null, "momentum": 0.99, "gamma_regularizer": null, "axis": -1, "mode": 0, "trainable": true, "name": "batchnormalization_12"}, "class_name": "BatchNormalization"}, {"config": {"activity_regularizer": null, "b_regularizer": null, "bias": true, "border_mode": "same", "nb_row": 3, "dim_ordering": "tf", "trainable": true, "subsample": [1, 1], "W_regularizer": null, "activation": "elu", "nb_col": 3, "b_constraint": null, "init": "glorot_uniform", "nb_filter": 512, "W_constraint": null, "name": "block5_conv3"}, "class_name": "Convolution2D"}, {"config": {"epsilon": 0.001, "beta_regularizer": null, "momentum": 0.99, "gamma_regularizer": null, "axis": -1, "mode": 0, "trainable": true, "name": "batchnormalization_13"}, "class_name": "BatchNormalization"}, {"config": {"pool_size": [2, 2], "strides": [2, 2], "border_mode": "valid", "dim_ordering": "tf", "trainable": true, "name": "block5_pool"}, "class_name": "MaxPooling2D"}, {"config": {"trainable": true, "name": "Flatten"}, "class_name": "Flatten"}, {"config": {"activity_regularizer": null, "b_regularizer": null, "input_dim": 2048, "bias": true, "trainable": true, "W_regularizer": null, "activation": "elu", "b_constraint": null, "init": "glorot_uniform", "name": "fc1", "W_constraint": null, "output_dim": 128}, "class_name": "Dense"}, {"config": {"p": 0.5, "trainable": true, "name": "fc1_dropout"}, "class_name": "Dropout"}, {"config": {"activity_regularizer": null, "b_regularizer": null, "input_dim": 128, "bias": true, "trainable": true, "W_regularizer": null, "activation": "elu", "b_constraint": null, "init": "glorot_uniform", "name": "fc2", "W_constraint": null, "output_dim": 64}, "class_name": "Dense"}, {"config": {"p": 0.5, "trainable": true, "name": "fc2_dropout"}, "class_name": "Dropout"}, {"config": {"activity_regularizer": null, "b_regularizer": null, "input_dim": 64, "bias": true, "trainable": true, "W_regularizer": null, "activation": "elu", "b_constraint": null, "init": "glorot_uniform", "name": "fc3", "W_constraint": null, "output_dim": 32}, "class_name": "Dense"}, {"config": {"p": 0.5, "trainable": true, "name": "fc3_dropout"}, "class_name": "Dropout"}, {"config": {"activity_regularizer": null, "b_regularizer": null, "input_dim": 32, "bias": true, "trainable": true, "W_regularizer": null, "activation": "linear", "b_constraint": null, "init": "zero", "name": "output", "W_constraint": null, "output_dim": 1}, "class_name": "Dense"}], "class_name": "Sequential"}