{"config": [{"config": {"arguments": {}, "input_dtype": "float32", "batch_input_shape": [null, 64, 64, 3], "trainable": true, "name": "lambda_1", "output_shape": [64, 64, 3], "function": ["\u00e3\u0001\u0000\u0000\u0000\u0000\u0000\u0000\u0000\u0001\u0000\u0000\u0000\u0002\u0000\u0000\u0000S\u0000\u0000\u0000s\f\u0000\u0000\u0000|\u0000\u0000d\u0001\u0000\u001bd\u0002\u0000\u0018S)\u0003N\u00e7\u0000\u0000\u0000\u0000\u0000\u00e0_@\u00e7\u0000\u0000\u0000\u0000\u0000\u0000\u00e0?\u00a9\u0000)\u0001\u00da\u0001xr\u0003\u0000\u0000\u0000r\u0003\u0000\u0000\u0000\u00fa//home/wj/CarND-Term1-Project/Project_3/model.py\u00da\b<lambda>\u0013\u0000\u0000\u0000s\u0000\u0000\u0000\u0000", null, null], "output_shape_type": "raw", "function_type": "lambda"}, "class_name": "Lambda"}, {"config": {"subsample": [1, 1], "nb_row": 1, "dim_ordering": "tf", "trainable": true, "W_constraint": null, "activity_regularizer": null, "name": "color_conv", "border_mode": "same", "bias": true, "W_regularizer": null, "activation": "linear", "b_regularizer": null, "init": "glorot_uniform", "b_constraint": null, "nb_filter": 3, "nb_col": 1}, "class_name": "Convolution2D"}, {"config": {"subsample": [1, 1], "nb_row": 3, "dim_ordering": "tf", "trainable": true, "W_constraint": null, "activity_regularizer": null, "name": "block1_conv1", "border_mode": "same", "bias": true, "W_regularizer": null, "activation": "elu", "b_regularizer": null, "init": "glorot_uniform", "b_constraint": null, "nb_filter": 64, "nb_col": 3}, "class_name": "Convolution2D"}, {"config": {"subsample": [1, 1], "nb_row": 3, "dim_ordering": "tf", "trainable": true, "W_constraint": null, "activity_regularizer": null, "name": "block1_conv2", "border_mode": "same", "bias": true, "W_regularizer": null, "activation": "elu", "b_regularizer": null, "init": "glorot_uniform", "b_constraint": null, "nb_filter": 64, "nb_col": 3}, "class_name": "Convolution2D"}, {"config": {"dim_ordering": "tf", "trainable": true, "name": "block1_pool", "strides": [2, 2], "pool_size": [2, 2], "border_mode": "valid"}, "class_name": "MaxPooling2D"}, {"config": {"subsample": [1, 1], "nb_row": 3, "dim_ordering": "tf", "trainable": true, "W_constraint": null, "activity_regularizer": null, "name": "block2_conv1", "border_mode": "same", "bias": true, "W_regularizer": null, "activation": "elu", "b_regularizer": null, "init": "glorot_uniform", "b_constraint": null, "nb_filter": 128, "nb_col": 3}, "class_name": "Convolution2D"}, {"config": {"subsample": [1, 1], "nb_row": 3, "dim_ordering": "tf", "trainable": true, "W_constraint": null, "activity_regularizer": null, "name": "block2_conv2", "border_mode": "same", "bias": true, "W_regularizer": null, "activation": "elu", "b_regularizer": null, "init": "glorot_uniform", "b_constraint": null, "nb_filter": 128, "nb_col": 3}, "class_name": "Convolution2D"}, {"config": {"dim_ordering": "tf", "trainable": true, "name": "block2_pool", "strides": [2, 2], "pool_size": [2, 2], "border_mode": "valid"}, "class_name": "MaxPooling2D"}, {"config": {"subsample": [1, 1], "nb_row": 3, "dim_ordering": "tf", "trainable": true, "W_constraint": null, "activity_regularizer": null, "name": "block3_conv1", "border_mode": "same", "bias": true, "W_regularizer": null, "activation": "elu", "b_regularizer": null, "init": "glorot_uniform", "b_constraint": null, "nb_filter": 256, "nb_col": 3}, "class_name": "Convolution2D"}, {"config": {"subsample": [1, 1], "nb_row": 3, "dim_ordering": "tf", "trainable": true, "W_constraint": null, "activity_regularizer": null, "name": "block3_conv2", "border_mode": "same", "bias": true, "W_regularizer": null, "activation": "elu", "b_regularizer": null, "init": "glorot_uniform", "b_constraint": null, "nb_filter": 256, "nb_col": 3}, "class_name": "Convolution2D"}, {"config": {"subsample": [1, 1], "nb_row": 3, "dim_ordering": "tf", "trainable": true, "W_constraint": null, "activity_regularizer": null, "name": "block3_conv3", "border_mode": "same", "bias": true, "W_regularizer": null, "activation": "elu", "b_regularizer": null, "init": "glorot_uniform", "b_constraint": null, "nb_filter": 256, "nb_col": 3}, "class_name": "Convolution2D"}, {"config": {"dim_ordering": "tf", "trainable": true, "name": "block3_pool", "strides": [2, 2], "pool_size": [2, 2], "border_mode": "valid"}, "class_name": "MaxPooling2D"}, {"config": {"subsample": [1, 1], "nb_row": 3, "dim_ordering": "tf", "trainable": true, "W_constraint": null, "activity_regularizer": null, "name": "block4_conv1", "border_mode": "same", "bias": true, "W_regularizer": null, "activation": "elu", "b_regularizer": null, "init": "glorot_uniform", "b_constraint": null, "nb_filter": 512, "nb_col": 3}, "class_name": "Convolution2D"}, {"config": {"subsample": [1, 1], "nb_row": 3, "dim_ordering": "tf", "trainable": true, "W_constraint": null, "activity_regularizer": null, "name": "block4_conv2", "border_mode": "same", "bias": true, "W_regularizer": null, "activation": "elu", "b_regularizer": null, "init": "glorot_uniform", "b_constraint": null, "nb_filter": 512, "nb_col": 3}, "class_name": "Convolution2D"}, {"config": {"subsample": [1, 1], "nb_row": 3, "dim_ordering": "tf", "trainable": true, "W_constraint": null, "activity_regularizer": null, "name": "block4_conv3", "border_mode": "same", "bias": true, "W_regularizer": null, "activation": "elu", "b_regularizer": null, "init": "glorot_uniform", "b_constraint": null, "nb_filter": 512, "nb_col": 3}, "class_name": "Convolution2D"}, {"config": {"dim_ordering": "tf", "trainable": true, "name": "block4_pool", "strides": [2, 2], "pool_size": [2, 2], "border_mode": "valid"}, "class_name": "MaxPooling2D"}, {"config": {"subsample": [1, 1], "nb_row": 3, "dim_ordering": "tf", "trainable": true, "W_constraint": null, "activity_regularizer": null, "name": "block5_conv1", "border_mode": "same", "bias": true, "W_regularizer": null, "activation": "elu", "b_regularizer": null, "init": "glorot_uniform", "b_constraint": null, "nb_filter": 512, "nb_col": 3}, "class_name": "Convolution2D"}, {"config": {"subsample": [1, 1], "nb_row": 3, "dim_ordering": "tf", "trainable": true, "W_constraint": null, "activity_regularizer": null, "name": "block5_conv2", "border_mode": "same", "bias": true, "W_regularizer": null, "activation": "elu", "b_regularizer": null, "init": "glorot_uniform", "b_constraint": null, "nb_filter": 512, "nb_col": 3}, "class_name": "Convolution2D"}, {"config": {"subsample": [1, 1], "nb_row": 3, "dim_ordering": "tf", "trainable": true, "W_constraint": null, "activity_regularizer": null, "name": "block5_conv3", "border_mode": "same", "bias": true, "W_regularizer": null, "activation": "elu", "b_regularizer": null, "init": "glorot_uniform", "b_constraint": null, "nb_filter": 512, "nb_col": 3}, "class_name": "Convolution2D"}, {"config": {"dim_ordering": "tf", "trainable": true, "name": "block5_pool", "strides": [2, 2], "pool_size": [2, 2], "border_mode": "valid"}, "class_name": "MaxPooling2D"}, {"config": {"trainable": true, "name": "Flatten"}, "class_name": "Flatten"}, {"config": {"trainable": true, "W_constraint": null, "activity_regularizer": null, "name": "fc1", "input_dim": 2048, "output_dim": 1024, "W_regularizer": null, "activation": "elu", "b_regularizer": null, "init": "glorot_uniform", "b_constraint": null, "bias": true}, "class_name": "Dense"}, {"config": {"trainable": true, "p": 0.5, "name": "fc1_dropout"}, "class_name": "Dropout"}, {"config": {"trainable": true, "W_constraint": null, "activity_regularizer": null, "name": "fc2", "input_dim": 1024, "output_dim": 256, "W_regularizer": null, "activation": "elu", "b_regularizer": null, "init": "glorot_uniform", "b_constraint": null, "bias": true}, "class_name": "Dense"}, {"config": {"trainable": true, "p": 0.5, "name": "fc2_dropout"}, "class_name": "Dropout"}, {"config": {"trainable": true, "W_constraint": null, "activity_regularizer": null, "name": "fc3", "input_dim": 256, "output_dim": 128, "W_regularizer": null, "activation": "elu", "b_regularizer": null, "init": "glorot_uniform", "b_constraint": null, "bias": true}, "class_name": "Dense"}, {"config": {"trainable": true, "p": 0.5, "name": "fc3_dropout"}, "class_name": "Dropout"}, {"config": {"trainable": true, "W_constraint": null, "activity_regularizer": null, "name": "fc4", "input_dim": 128, "output_dim": 64, "W_regularizer": null, "activation": "elu", "b_regularizer": null, "init": "glorot_uniform", "b_constraint": null, "bias": true}, "class_name": "Dense"}, {"config": {"trainable": true, "p": 0.5, "name": "fc4_dropout"}, "class_name": "Dropout"}, {"config": {"trainable": true, "W_constraint": null, "activity_regularizer": null, "name": "fc5", "input_dim": 64, "output_dim": 32, "W_regularizer": null, "activation": "elu", "b_regularizer": null, "init": "glorot_uniform", "b_constraint": null, "bias": true}, "class_name": "Dense"}, {"config": {"trainable": true, "p": 0.5, "name": "fc5_dropout"}, "class_name": "Dropout"}, {"config": {"trainable": true, "W_constraint": null, "activity_regularizer": null, "name": "output", "input_dim": 32, "output_dim": 1, "W_regularizer": null, "activation": "linear", "b_regularizer": null, "init": "zero", "b_constraint": null, "bias": true}, "class_name": "Dense"}], "keras_version": "1.2.1", "class_name": "Sequential"}