{"config": [{"config": {"function": ["\u00e3\u0001\u0000\u0000\u0000\u0000\u0000\u0000\u0000\u0001\u0000\u0000\u0000\u0002\u0000\u0000\u0000S\u0000\u0000\u0000s\f\u0000\u0000\u0000|\u0000\u0000d\u0001\u0000\u001bd\u0002\u0000\u0018S)\u0003N\u00e9\u00ff\u0000\u0000\u0000g\u0000\u0000\u0000\u0000\u0000\u0000\u00e0?\u00a9\u0000)\u0001\u00da\u0001xr\u0002\u0000\u0000\u0000r\u0002\u0000\u0000\u0000\u00fa//home/wj/CarND-Term1-Project/Project_3/model.py\u00da\b<lambda>\u000f\u0000\u0000\u0000s\u0000\u0000\u0000\u0000", null, null], "name": "lambda_1", "input_dtype": "float32", "function_type": "lambda", "output_shape": [64, 64, 3], "output_shape_type": "raw", "batch_input_shape": [null, 64, 64, 3], "trainable": true, "arguments": {}}, "class_name": "Lambda"}, {"config": {"b_constraint": null, "W_regularizer": null, "b_regularizer": null, "activity_regularizer": null, "nb_filter": 3, "trainable": true, "init": "glorot_uniform", "border_mode": "same", "name": "conv_in", "dim_ordering": "tf", "W_constraint": null, "activation": "linear", "nb_row": 1, "subsample": [1, 1], "nb_col": 1, "bias": true}, "class_name": "Convolution2D"}, {"config": {"b_constraint": null, "W_regularizer": null, "b_regularizer": null, "activity_regularizer": null, "nb_filter": 64, "trainable": true, "init": "glorot_uniform", "border_mode": "same", "name": "conv_1", "dim_ordering": "tf", "W_constraint": null, "activation": "elu", "nb_row": 3, "subsample": [1, 1], "nb_col": 3, "bias": true}, "class_name": "Convolution2D"}, {"config": {"b_constraint": null, "W_regularizer": null, "b_regularizer": null, "activity_regularizer": null, "nb_filter": 64, "trainable": true, "init": "glorot_uniform", "border_mode": "same", "name": "conv_2", "dim_ordering": "tf", "W_constraint": null, "activation": "elu", "nb_row": 3, "subsample": [1, 1], "nb_col": 3, "bias": true}, "class_name": "Convolution2D"}, {"config": {"name": "pool_1", "dim_ordering": "tf", "border_mode": "valid", "pool_size": [2, 2], "trainable": true, "strides": [2, 2]}, "class_name": "MaxPooling2D"}, {"config": {"b_constraint": null, "W_regularizer": null, "b_regularizer": null, "activity_regularizer": null, "nb_filter": 128, "trainable": true, "init": "glorot_uniform", "border_mode": "same", "name": "conv_3", "dim_ordering": "tf", "W_constraint": null, "activation": "elu", "nb_row": 3, "subsample": [1, 1], "nb_col": 3, "bias": true}, "class_name": "Convolution2D"}, {"config": {"b_constraint": null, "W_regularizer": null, "b_regularizer": null, "activity_regularizer": null, "nb_filter": 128, "trainable": true, "init": "glorot_uniform", "border_mode": "same", "name": "conv_4", "dim_ordering": "tf", "W_constraint": null, "activation": "elu", "nb_row": 3, "subsample": [1, 1], "nb_col": 3, "bias": true}, "class_name": "Convolution2D"}, {"config": {"name": "pool_2", "dim_ordering": "tf", "border_mode": "valid", "pool_size": [2, 2], "trainable": true, "strides": [2, 2]}, "class_name": "MaxPooling2D"}, {"config": {"b_constraint": null, "W_regularizer": null, "b_regularizer": null, "activity_regularizer": null, "nb_filter": 256, "trainable": true, "init": "glorot_uniform", "border_mode": "same", "name": "conv_5", "dim_ordering": "tf", "W_constraint": null, "activation": "elu", "nb_row": 3, "subsample": [1, 1], "nb_col": 3, "bias": true}, "class_name": "Convolution2D"}, {"config": {"b_constraint": null, "W_regularizer": null, "b_regularizer": null, "activity_regularizer": null, "nb_filter": 256, "trainable": true, "init": "glorot_uniform", "border_mode": "same", "name": "conv_6", "dim_ordering": "tf", "W_constraint": null, "activation": "elu", "nb_row": 3, "subsample": [1, 1], "nb_col": 3, "bias": true}, "class_name": "Convolution2D"}, {"config": {"b_constraint": null, "W_regularizer": null, "b_regularizer": null, "activity_regularizer": null, "nb_filter": 256, "trainable": true, "init": "glorot_uniform", "border_mode": "same", "name": "conv_7", "dim_ordering": "tf", "W_constraint": null, "activation": "elu", "nb_row": 3, "subsample": [1, 1], "nb_col": 3, "bias": true}, "class_name": "Convolution2D"}, {"config": {"name": "pool_3", "dim_ordering": "tf", "border_mode": "valid", "pool_size": [2, 2], "trainable": true, "strides": [2, 2]}, "class_name": "MaxPooling2D"}, {"config": {"b_constraint": null, "W_regularizer": null, "b_regularizer": null, "activity_regularizer": null, "nb_filter": 512, "trainable": true, "init": "glorot_uniform", "border_mode": "same", "name": "conv_8", "dim_ordering": "tf", "W_constraint": null, "activation": "elu", "nb_row": 3, "subsample": [1, 1], "nb_col": 3, "bias": true}, "class_name": "Convolution2D"}, {"config": {"b_constraint": null, "W_regularizer": null, "b_regularizer": null, "activity_regularizer": null, "nb_filter": 512, "trainable": true, "init": "glorot_uniform", "border_mode": "same", "name": "conv_9", "dim_ordering": "tf", "W_constraint": null, "activation": "elu", "nb_row": 3, "subsample": [1, 1], "nb_col": 3, "bias": true}, "class_name": "Convolution2D"}, {"config": {"b_constraint": null, "W_regularizer": null, "b_regularizer": null, "activity_regularizer": null, "nb_filter": 512, "trainable": true, "init": "glorot_uniform", "border_mode": "same", "name": "conv_10", "dim_ordering": "tf", "W_constraint": null, "activation": "elu", "nb_row": 3, "subsample": [1, 1], "nb_col": 3, "bias": true}, "class_name": "Convolution2D"}, {"config": {"name": "pool_4", "dim_ordering": "tf", "border_mode": "valid", "pool_size": [2, 2], "trainable": true, "strides": [2, 2]}, "class_name": "MaxPooling2D"}, {"config": {"b_constraint": null, "W_regularizer": null, "b_regularizer": null, "activity_regularizer": null, "nb_filter": 512, "trainable": true, "init": "glorot_uniform", "border_mode": "same", "name": "conv_11", "dim_ordering": "tf", "W_constraint": null, "activation": "elu", "nb_row": 3, "subsample": [1, 1], "nb_col": 3, "bias": true}, "class_name": "Convolution2D"}, {"config": {"b_constraint": null, "W_regularizer": null, "b_regularizer": null, "activity_regularizer": null, "nb_filter": 512, "trainable": true, "init": "glorot_uniform", "border_mode": "same", "name": "conv_12", "dim_ordering": "tf", "W_constraint": null, "activation": "elu", "nb_row": 3, "subsample": [1, 1], "nb_col": 3, "bias": true}, "class_name": "Convolution2D"}, {"config": {"b_constraint": null, "W_regularizer": null, "b_regularizer": null, "activity_regularizer": null, "nb_filter": 512, "trainable": true, "init": "glorot_uniform", "border_mode": "same", "name": "conv_13", "dim_ordering": "tf", "W_constraint": null, "activation": "elu", "nb_row": 3, "subsample": [1, 1], "nb_col": 3, "bias": true}, "class_name": "Convolution2D"}, {"config": {"name": "pool_5", "dim_ordering": "tf", "border_mode": "valid", "pool_size": [2, 2], "trainable": true, "strides": [2, 2]}, "class_name": "MaxPooling2D"}, {"config": {"name": "Flatten", "trainable": true}, "class_name": "Flatten"}, {"config": {"output_dim": 512, "bias": true, "b_regularizer": null, "activity_regularizer": null, "W_regularizer": null, "trainable": true, "init": "glorot_uniform", "name": "fc1", "input_dim": 2048, "W_constraint": null, "activation": "elu", "b_constraint": null}, "class_name": "Dense"}, {"config": {"p": 0.5, "name": "fc1_dropout", "trainable": true}, "class_name": "Dropout"}, {"config": {"output_dim": 256, "bias": true, "b_regularizer": null, "activity_regularizer": null, "W_regularizer": null, "trainable": true, "init": "glorot_uniform", "name": "fc2", "input_dim": 512, "W_constraint": null, "activation": "elu", "b_constraint": null}, "class_name": "Dense"}, {"config": {"p": 0.5, "name": "fc2_dropout", "trainable": true}, "class_name": "Dropout"}, {"config": {"output_dim": 64, "bias": true, "b_regularizer": null, "activity_regularizer": null, "W_regularizer": null, "trainable": true, "init": "glorot_uniform", "name": "fc3", "input_dim": 256, "W_constraint": null, "activation": "elu", "b_constraint": null}, "class_name": "Dense"}, {"config": {"p": 0.5, "name": "fc3_dropout", "trainable": true}, "class_name": "Dropout"}, {"config": {"output_dim": 32, "bias": true, "b_regularizer": null, "activity_regularizer": null, "W_regularizer": null, "trainable": true, "init": "glorot_uniform", "name": "fc4", "input_dim": 64, "W_constraint": null, "activation": "elu", "b_constraint": null}, "class_name": "Dense"}, {"config": {"p": 0.5, "name": "fc4_dropout", "trainable": true}, "class_name": "Dropout"}, {"config": {"output_dim": 1, "bias": true, "b_regularizer": null, "activity_regularizer": null, "W_regularizer": null, "trainable": true, "init": "zero", "name": "output", "input_dim": 32, "W_constraint": null, "activation": "linear", "b_constraint": null}, "class_name": "Dense"}], "keras_version": "1.2.1", "class_name": "Sequential"}